…
 = MaxPooling2D(pool_size=2)(y) y = Conv2D_block(y, number_of_layers= 2, filters=128, kernel_size=3) y = GlobalAveragePooling2D()(y) y = Dropout(0.5)(y) output = Dense(6, activation='softmax')(y) model_1 = Model(inputs=visible, outputs=output)  3.1.1.1. Model 1 summary Model: \u0026quot;model 1\u0026quot; _________________________________________________________________ Layer (type) Output Shape Param # ================================================================= input_1 (InputLayer) [(None, 150, 150, 3)] 0 _________________________________________________________________ conv2d (Conv2D) (None, 150, 150, 32) 4736 _________________________________________________________________ batch_normalization (BatchNo (None, 150, 150, 32) 128 _________________________________________________________________ conv2d_1 (Conv2D) (None, 150, 150, 32) 9248 _________________________________________________________________ batch_normalization_1 (Batch (None, 150, 150, 32) 128 _________________________________________________________________ conv2d_2 (Conv2D) (None, 150, 150, 32) 9248 _________________________________________________________________ batch_normalization_2 (Batch (None, 150, 150, 32) 128 _________________________________________________________________ max_pooling2d (MaxPooling2D) (None, 75, 75, 32) 0 _________________________________________________________________ conv2d_3 (Conv2D) (None, 75, 75, 32) 9248 _________________________________________________________________ batch_normalization_3 (Batch (None, 75, 75, 32) 128 _________________________________________________________________ conv2d_4 (Conv2D) (None, 75, 75, 32) 9248 _________________________________________________________________ batch_normalization_4 (Batch (None, 75, 75, 32) 128 _________________________________________________________________ max_pooling2d_1 (MaxPooling2 (None, 37, 37, 32) 0 _________________________________________________________________ conv2d_5 (Conv2D) (None, 37, 37, 32) 9248 _________________________________________________________________ batch_normalization_5 (Batch (None, 37, 37, 32) 128 _________________________________________________________________ conv2d_6 (Conv2D) (None, 37, 37, 32) 9248 _________________________________________________________________ batch_normalization_6 (Batch (None, 37, 37, 32) 128 _________________________________________________________________ conv2d_7 (Conv2D) (None, 37, 37, 32) 9248 _________________________________________________________________ batch_normalization_7 (Batch (None, 37, 37, 32) 128 _________________________________________________________________ max_pooling2d_2 (MaxPooling2 (None, 18, 18, 32) 0 _________________________________________________________________ conv2d_8 (Conv2D) (None, 18, 18, 32) 9248 _________________________________________________________________ batch_normalization_8 (Batch (None, 18, 18, 32) 128 _________________________________________________________________ conv2d_9 (Conv2D) (None, 18, 18, 32) 9248 _________________________________________________________________ batch_normalization_9 (Batch (None, 18, 18, 32) 128 _________________________________________________________________ conv2d_10 (Conv2D) (None, 18, 18, 32) 9248 _________________________________________________________________ batch_normalization_10 (Batc (None, 18, 18, 32) 128 _________________________________________________________________ max_pooling2d_3 (MaxPooling2 (None, 9, 9, 32) 0 _________________________________________________________________ conv2d_11 (Conv2D) (None, 9, 9, 32) 9248 _________________________________________________________________ batch_normalization_11 (Batc (None, 9, 9, 32) 128 _________________________________________________________________ conv2d_12 (Conv2D) (None, 9, 9, 32) 9248 _________________________________________________________________ batch_normalization_12 (Batc (None, 9, 9, 32) 128 _________________________________________________________________ conv2d_13 (Conv2D) (None, 9, 9, 32) 9248 _________________________________________________________________ batch_normalization_13 (Batc (None, 9, 9, 32) 128 _________________________________________________________________ conv2d_14 (Conv2D) (None, 9, 9, 32) 9248 _________________________________________________________________ batch_normalization_14 (Batc (None, 9, 9, 32) 128 _________________________________________________________________ conv2d_15 (Conv2D) (None, 9, 9, 32) 9248 _________________________________________________________________ batch_normalization_15 (Batc (None, 9, 9, 32) 128 _________________________________________________________________ conv2d_16 (Conv2D) (None, 9, 9, 32) 9248 _________________________________________________________________ batch_normalization_16 (Batc (None, 9, 9, 32) 128 _________________________________________________________________ conv2d_17 (Conv2D) (None, 9, 9, 32) 9248 _________________________________________________________________ batch_normalization_17 (Batc (None, 9, 9, 32) 128 _________________________________________________________________ conv2d_18 (Conv2D) (None, 9, 9, 32) 9248 _________________________________________________________________ batch_normalization_18 (Batc (None, 9, 9, 32) 128 _________________________________________________________________ conv2d_19 (Conv2D) (None, 9, 9, 32) 9248 _________________________________________________________________ batch_normalization_19 (Batc (None, 9, 9, 32) 128 _________________________________________________________________ conv2d_20 (Conv2D) (None, 9, 9, 32) 9248 _________________________________________________________________ batch_normalization_20 (Batc (None, 9, 9, 32) 128 _________________________________________________________________ conv2d_21 (Conv2D) (None, 9, 9, 64) 18496 _________________________________________________________________ batch_normalization_21 (Batc (None, 9, 9, 64) 256 _________________________________________________________________ conv2d_22 (Conv2D) (None, 9, 9, 64) 36928 _________________________________________________________________ batch_normalization_22 (Batc (None, 9, 9, 64) 256 _________________________________________________________________ conv2d_23 (Conv2D) (None, 9, 9, 64) 36928 _________________________________________________________________ batch_normalization_23 (Batc (None, 9, 9, 64) 256 _________________________________________________________________ conv2d_24 (Conv2D) (None, 9, 9, 64) 36928 _________________________________________________________________ batch_normalization_24 (Batc (None, 9, 9, 64) 256 _________________________________________________________________ conv2d_25 (Conv2D) (None, 9, 9, 64) 36928 _________________________________________________________________ batch_normalization_25 (Batc (None, 9, 9, 64) 256 _________________________________________________________________ conv2d_26 (Conv2D) (None, 9, 9, 64) 4160 _________________________________________________________________ batch_normalization_26 (Batc (None, 9, 9, 64) 256 _________________________________________________________________ conv2d_27 (Conv2D) (None, 9, 9, 64) 36928 _________________________________________________________________ batch_normalization_27 (Batc (None, 9, 9, 64) 256 _________________________________________________________________ conv2d_28 (Conv2D) (None, 9, 9, 128) 8320 _________________________________________________________________ batch_normalization_28 (Batc (None, 9, 9, 128) 512 _________________________________________________________________ conv2d_29 (Conv2D) (None, 9, 9, 128) 147584 _________________________________________________________________ batch_normalization_29 (Batc (None, 9, 9, 128) 512 _________________________________________________________________ conv2d_30 (Conv2D) (None, 9, 9, 128) 147584 _________________________________________________________________ batch_normalization_30 (Batc (None, 9, 9, 128) 512 _________________________________________________________________ max_pooling2d_4 (MaxPooling2 (None, 4, 4, 128) 0 _________________________________________________________________ conv2d_31 (Conv2D) (None, 4, 4, 128) 147584 _________________________________________________________________ batch_normalization_31 (Batc (None, 4, 4, 128) 512 _________________________________________________________________ conv2d_32 (Conv2D) (None, 4, 4, 128) 147584 _________________________________________________________________ batch_normalization_32 (Batc (None, 4, 4, 128) 512 _________________________________________________________________ global_average_pooling2d (Gl (None, 128) 0 _________________________________________________________________ dropout (Dropout) (None, 128) 0 _________________________________________________________________ dense (Dense) (None, 6) 774 ================================================================= Total params: 1,003,462 Trainable params: 999,942 Non-trainable params: 3,520  3.1.2. MODEL 2: # ------------------------MODEL 2------------------------------- visible = Input(shape=(150, 150, 3)) y = Conv2D_block(visible, number_of_layers= 1, filters= 32, kernel_size=7) y = Conv2D_block(y, number_of_layers= 3, filters= 32, kernel_
…
onv2D_block(y, number_of_layers= 1, filters= 128, kernel_size=3) y = MaxPooling2D(pool_size=2)(y) y = GlobalAveragePooling2D()(y) y = Dropout(0.5)(y) output = Dense(6, activation='softmax')(y) model_2 = Model(inputs=visible, outputs=output)  3.1.2.1. Model 2 summary Model: \u0026quot;model_2\u0026quot; _________________________________________________________________ Layer (type) Output Shape Param # ================================================================= input_2 (InputLayer) [(None, 150, 150, 3)] 0 _________________________________________________________________ conv2d_33 (Conv2D) (None, 150, 150, 32) 4736 _________________________________________________________________ batch_normalization_33 (Batc (None, 150, 150, 32) 128 _________________________________________________________________ conv2d_34 (Conv2D) (None, 150, 150, 32) 9248 _________________________________________________________________ batch_normalization_34 (Batc (None, 150, 150, 32) 128 _________________________________________________________________ conv2d_35 (Conv2D) (None, 150, 150, 32) 9248 _________________________________________________________________ batch_normalization_35 (Batc (None, 150, 150, 32) 128 _________________________________________________________________ conv2d_36 (Conv2D) (None, 150, 150, 32) 9248 _________________________________________________________________ batch_normalization_36 (Batc (None, 150, 150, 32) 128 _________________________________________________________________ max_pooling2d_5 (MaxPooling2 (None, 75, 75, 32) 0 _________________________________________________________________ conv2d_37 (Conv2D) (None, 75, 75, 32) 9248 _________________________________________________________________ batch_normalization_37 (Batc (None, 75, 75, 32) 128 _________________________________________________________________ conv2d_38 (Conv2D) (None, 75, 75, 32) 9248 _________________________________________________________________ batch_normalization_38 (Batc (None, 75, 75, 32) 128 _________________________________________________________________ conv2d_39 (Conv2D) (None, 75, 75, 32) 9248 _________________________________________________________________ batch_normalization_39 (Batc (None, 75, 75, 32) 128 _________________________________________________________________ max_pooling2d_6 (MaxPooling2 (None, 37, 37, 32) 0 _________________________________________________________________ conv2d_40 (Conv2D) (None, 37, 37, 32) 9248 _________________________________________________________________ batch_normalization_40 (Batc (None, 37, 37, 32) 128 _________________________________________________________________ conv2d_41 (Conv2D) (None, 37, 37, 32) 9248 _________________________________________________________________ batch_normalization_41 (Batc (None, 37, 37, 32) 128 _________________________________________________________________ conv2d_42 (Conv2D) (None, 37, 37, 32) 9248 _________________________________________________________________ batch_normalization_42 (Batc (None, 37, 37, 32) 128 _________________________________________________________________ conv2d_43 (Conv2D) (None, 37, 37, 32) 9248 _________________________________________________________________ batch_normalization_43 (Batc (None, 37, 37, 32) 128 _________________________________________________________________ conv2d_44 (Conv2D) (None, 37, 37, 32) 9248 _________________________________________________________________ batch_normalization_44 (Batc (None, 37, 37, 32) 128 _________________________________________________________________ conv2d_45 (Conv2D) (None, 37, 37, 32) 9248 _________________________________________________________________ batch_normalization_45 (Batc (None, 37, 37, 32) 128 _________________________________________________________________ conv2d_46 (Conv2D) (None, 37, 37, 32) 9248 _________________________________________________________________ batch_normalization_46 (Batc (None, 37, 37, 32) 128 _________________________________________________________________ conv2d_47 (Conv2D) (None, 37, 37, 32) 9248 _________________________________________________________________ batch_normalization_47 (Batc (None, 37, 37, 32) 128 _________________________________________________________________ conv2d_48 (Conv2D) (None, 37, 37, 32) 9248 _________________________________________________________________ batch_normalization_48 (Batc (None, 37, 37, 32) 128 _________________________________________________________________ conv2d_49 (Conv2D) (None, 37, 37, 32) 9248 _________________________________________________________________ batch_normalization_49 (Batc (None, 37, 37, 32) 128 _________________________________________________________________ conv2d_50 (Conv2D) (None, 37, 37, 32) 9248 _________________________________________________________________ batch_normalization_50 (Batc (None, 37, 37, 32) 128 _________________________________________________________________ conv2d_51 (Conv2D) (None, 37, 37, 32) 9248 _________________________________________________________________ batch_normalization_51 (Batc (None, 37, 37, 32) 128 _________________________________________________________________ conv2d_52 (Conv2D) (None, 37, 37, 32) 9248 _________________________________________________________________ batch_normalization_52 (Batc (None, 37, 37, 32) 128 _________________________________________________________________ conv2d_53 (Conv2D) (None, 37, 37, 32) 9248 _________________________________________________________________ batch_normalization_53 (Batc (None, 37, 37, 32) 128 _________________________________________________________________ conv2d_54 (Conv2D) (None, 37, 37, 32) 9248 _________________________________________________________________ batch_normalization_54 (Batc (None, 37, 37, 32) 128 _________________________________________________________________ conv2d_55 (Conv2D) (None, 37, 37, 32) 1056 _________________________________________________________________ batch_normalization_55 (Batc (None, 37, 37, 32) 128 _________________________________________________________________ conv2d_56 (Conv2D) (None, 37, 37, 32) 9248 _________________________________________________________________ batch_normalization_56 (Batc (None, 37, 37, 32) 128 _________________________________________________________________ conv2d_57 (Conv2D) (None, 37, 37, 64) 2112 _________________________________________________________________ batch_normalization_57 (Batc (None, 37, 37, 64) 256 _________________________________________________________________ conv2d_58 (Conv2D) (None, 37, 37, 64) 36928 _________________________________________________________________ batch_normalization_58 (Batc (None, 37, 37, 64) 256 _________________________________________________________________ conv2d_59 (Conv2D) (None, 37, 37, 64) 36928 _________________________________________________________________ batch_normalization_59 (Batc (None, 37, 37, 64) 256 _________________________________________________________________ conv2d_60 (Conv2D) (None, 37, 37, 64) 36928 _________________________________________________________________ batch_normalization_60 (Batc (None, 37, 37, 64) 256 _________________________________________________________________ max_pooling2d_7 (MaxPooling2 (None, 18, 18, 64) 0 _________________________________________________________________ conv2d_61 (Conv2D) (None, 18, 18, 64) 36928 _________________________________________________________________ batch_normalization_61 (Batc (None, 18, 18, 64) 256 _________________________________________________________________ conv2d_62 (Conv2D) (None, 18, 18, 64) 36928 _________________________________________________________________ batch_normalization_62 (Batc (None, 18, 18, 64) 256 _________________________________________________________________ conv2d_63 (Conv2D) (None, 18, 18, 64) 36928 _________________________________________________________________ batch_normalization_63 (Batc (None, 18, 18, 64) 256 _________________________________________________________________ conv2d_64 (Conv2D) (None, 18, 18, 64) 36928 _________________________________________________________________ batch_normalization_64 (Batc (None, 18, 18, 64) 256 _________________________________________________________________ conv2d_65 (Conv2D) (None, 18, 18, 64) 36928 _________________________________________________________________ batch_normalization_65 (Batc (None, 18, 18, 64) 256 _________________________________________________________________ conv2d_66 (Conv2D) (None, 18, 18, 64) 36928 _________________________________________________________________ batch_normalization_66 (Batc (None, 18, 18, 64) 256 _________________________________________________________________ conv2d_67 (Conv2D) (None, 18, 18, 64) 36928 _________________________________________________________________ batch_normalization_67 (Batc (None, 18, 18, 64) 256 _________________________________________________________________ conv2d_68 (Conv2D) (None, 18, 18, 64) 36928 _________________________________________________________________ batch_normalization_68 (Batc (None, 18, 18, 64) 256 _________________________________________________________________ conv2d_69 (Conv2D) (None, 18, 18, 64) 36928 _________________________________________________________________ batch_normalization_69 (Batc (None, 18, 18, 64) 256 _________________________________________________________________ conv2d_70 (Conv2D) (None, 18, 18, 128) 73856 _________________________________________________________________ batch_normalization_70 (Batc (None, 18, 18, 128) 512 _________________________________________________________________ max_pooling2d_8 (MaxPooling2 (None, 9, 9, 128) 0 _________________________________________________________________ global_average_pooling2d_1 ( (None, 128) 0 _________________________________________________________________ dropout_1 (Dropout) (None, 128) 0 _________________________________________________________________ dense_1 (Dense) (None, 6) 774 ================================================================= Total params: 736,038 Trainable params: 732,582 Non-trainable params: 3,456  3.1.3. MODEL 3: visible = Input(shape=(150, 150, 3)) y1 = MaxPooling2D(pool_size= 2)(visible) y1 = Conv2D_block(y1, number_of_layers= 1, filters= 32, kernel_size= 7) y1 = Conv2D_block(y1, number_of_layers= 2, filters= 32, kernel_size= 1) y1 = Conv2D_block(
…
_block(y12, number_of_layers= 2, filters= 64, kernel_size= 3) y12 = MaxPooling2D(pool_size=2)(y12) y = concatenate([y11, y12]) y = GlobalAveragePooling2D()(y) y = Dropout(0.3)(y) output = Dense(6, activation='softmax')(y) model_3 = Model(inputs=visible, outputs=output)  3.1.3.1. Model 3 summary Model: \u0026quot;model_3\u0026quot; __________________________________________________________________________________________________ Layer (type) Output Shape Param # Connected to ================================================================================================== input_3 (InputLayer) [(None, 150, 150, 3) 0 __________________________________________________________________________________________________ conv2d_76 (Conv2D) (None, 150, 150, 32) 2432 input_3[0][0] __________________________________________________________________________________________________ conv2d_87 (Conv2D) (None, 150, 150, 32) 128 input_3[0][0] __________________________________________________________________________________________________ batch_normalization_76 (BatchNo (None, 150, 150, 32) 128 conv2d_76[0][0] __________________________________________________________________________________________________ batch_normalization_87 (BatchNo (None, 150, 150, 32) 128 conv2d_87[0][0] __________________________________________________________________________________________________ max_pooling2d_9 (MaxPooling2D) (None, 75, 75, 3) 0 input_3[0][0] __________________________________________________________________________________________________ conv2d_77 (Conv2D) (None, 150, 150, 32) 9248 batch_normalization_76[0][0] __________________________________________________________________________________________________ conv2d_82 (Conv2D) (None, 150, 150, 32) 896 input_3[0][0] __________________________________________________________________________________________________ conv2d_88 (Conv2D) (None, 150, 150, 32) 9248 batch_normalization_87[0][0] __________________________________________________________________________________________________ conv2d_71 (Conv2D) (None, 75, 75, 32) 4736 max_pooling2d_9[0][0] __________________________________________________________________________________________________ batch_normalization_77 (BatchNo (None, 150, 150, 32) 128 conv2d_77[0][0] __________________________________________________________________________________________________ batch_normalization_82 (BatchNo (None, 150, 150, 32) 128 conv2d_82[0][0] __________________________________________________________________________________________________ batch_normalization_88 (BatchNo (None, 150, 150, 32) 128 conv2d_88[0][0] __________________________________________________________________________________________________ batch_normalization_71 (BatchNo (None, 75, 75, 32) 128 conv2d_71[0][0] __________________________________________________________________________________________________ conv2d_78 (Conv2D) (None, 150, 150, 32) 9248 batch_normalization_77[0][0] __________________________________________________________________________________________________ conv2d_83 (Conv2D) (None, 150, 150, 32) 9248 batch_normalization_82[0][0] __________________________________________________________________________________________________ conv2d_89 (Conv2D) (None, 150, 150, 32) 9248 batch_normalization_88[0][0] __________________________________________________________________________________________________ conv2d_72 (Conv2D) (None, 75, 75, 32) 1056 batch_normalization_71[0][0] __________________________________________________________________________________________________ batch_normalization_78 (BatchNo (None, 150, 150, 32) 128 conv2d_78[0][0] __________________________________________________________________________________________________ batch_normalization_83 (BatchNo (None, 150, 150, 32) 128 conv2d_83[0][0] __________________________________________________________________________________________________ batch_normalization_89 (BatchNo (None, 150, 150, 32) 128 conv2d_89[0][0] __________________________________________________________________________________________________ batch_normalization_72 (BatchNo (None, 75, 75, 32) 128 conv2d_72[0][0] __________________________________________________________________________________________________ conv2d_79 (Conv2D) (None, 150, 150, 64) 18496 batch_normalization_78[0][0] __________________________________________________________________________________________________ conv2d_84 (Conv2D) (None, 150, 150, 32) 9248 batch_normalization_83[0][0] __________________________________________________________________________________________________ conv2d_90 (Conv2D) (None, 150, 150, 64) 2112 batch_normalization_89[0][0] __________________________________________________________________________________________________ conv2d_73 (Conv2D) (None, 75, 75, 32) 1056 batch_normalization_72[0][0] __________________________________________________________________________________________________ batch_normalization_79 (BatchNo (None, 150, 150, 64) 256 conv2d_79[0][0] __________________________________________________________________________________________________ batch_normalization_84 (BatchNo (None, 150, 150, 32) 128 conv2d_84[0][0] __________________________________________________________________________________________________ batch_normalization_90 (BatchNo (None, 150, 150, 64) 256 conv2d_90[0][0] __________________________________________________________________________________________________ batch_normalization_73 (BatchNo (None, 75, 75, 32) 128 conv2d_73[0][0] __________________________________________________________________________________________________ conv2d_80 (Conv2D) (None, 150, 150, 64) 36928 batch_normalization_79[0][0] __________________________________________________________________________________________________ conv2d_85 (Conv2D) (None, 150, 150, 32) 9248 batch_normalization_84[0][0] __________________________________________________________________________________________________ conv2d_91 (Conv2D) (None, 150, 150, 64) 4160 batch_normalization_90[0][0] __________________________________________________________________________________________________ conv2d_74 (Conv2D) (None, 75, 75, 64) 18496 batch_normalization_73[0][0] __________________________________________________________________________________________________ batch_normalization_80 (BatchNo (None, 150, 150, 64) 256 conv2d_80[0][0] __________________________________________________________________________________________________ batch_normalization_85 (BatchNo (None, 150, 150, 32) 128 conv2d_85[0][0] __________________________________________________________________________________________________ batch_normalization_91 (BatchNo (None, 150, 150, 64) 256 conv2d_91[0][0] __________________________________________________________________________________________________ batch_normalization_74 (BatchNo (None, 75, 75, 64) 256 conv2d_74[0][0] __________________________________________________________________________________________________ conv2d_81 (Conv2D) (None, 150, 150, 64) 36928 batch_normalization_80[0][0] __________________________________________________________________________________________________ conv2d_86 (Conv2D) (None, 150, 150, 32) 9248 batch_normalization_85[0][0] __________________________________________________________________________________________________ conv2d_92 (Conv2D) (None, 150, 150, 64) 4160 batch_normalization_91[0][0] __________________________________________________________________________________________________ conv2d_75 (Conv2D) (None, 75, 75, 64) 36928 batch_normalization_74[0][0] __________________________________________________________________________________________________ batch_normalization_81 (BatchNo (None, 150, 150, 64) 256 conv2d_81[0][0] __________________________________________________________________________________________________ batch_normalization_86 (BatchNo (None, 150, 150, 32) 128 conv2d_86[0][0] __________________________________________________________________________________________________ batch_normalization_92 (BatchNo (None, 150, 150, 64) 256 conv2d_92[0][0] __________________________________________________________________________________________________ batch_normalization_75 (BatchNo (None, 75, 75, 64) 256 conv2d_75[0][0] __________________________________________________________________________________________________ max_pooling2d_10 (MaxPooling2D) (None, 75, 75, 64) 0 batch_normalization_81[0][0] __________________________________________________________________________________________________ max_pooling2d_11 (MaxPooling2D) (None, 75, 75, 32) 0 batch_normalization_86[0][0] __________________________________________________________________________________________________ max_pooling2d_12 (MaxPooling2D) (None, 75, 75, 64) 0 batch_normalization_92[0][0] __________________________________________________________________________________________________ concatenate (Concatenate) (None, 75, 75, 224) 0 batch_normalization_75[0][0] max_pooling2d_10[0][0] max_pooling2d_11[0][0] max_pooling2d_12[0][0] __________________________________________________________________________________________________ conv2d_102 (Conv2D) (None, 75, 75, 32) 7200 concatenate[0][0] __________________________________________________________________________________________________ batch_normalization_102 (BatchN (None, 75, 75, 32) 128 conv2d_102[0][0] __________________________________________________________________________________________________ conv2d_103 (Conv2D) (None, 75, 75, 32) 9248 batch_normalization_102[0][0] __________________________________________________________________________________________________ batch_normalization_103 (BatchN (None, 75, 75, 32) 128 conv2d_103[0][0] __________________________________________________________________________________________________ conv2d_104 (Conv2D) (None, 75, 75, 64) 2112 batch_normalization_103[0][0] __________________________________________________________________________________________________ batch_normalization_104 (BatchN (None, 75, 75, 64) 256 conv2d_104[0][0] __________________________________________________________________________________________________ conv2d_105 (Conv2D) (None, 75, 75, 64) 36928 batch_normalization_104[0][0] __________________________________________________________________________________________________ batch_normalization_105 (BatchN (None, 75, 75, 64) 256 conv2d_105[0][0] __________________________________________________________________________________________________ conv2d_106 (Conv2D) (None, 75, 75, 64) 36928 batch_normalization_105[0][0] __________________________________________________________________________________________________ batch_normalization_106 (BatchN (None, 75, 75, 64) 256 conv2d_106[0][0] __________________________________________________________________________________________________ max_pooling2d_13 (MaxPooling2D) (None, 37, 37, 224) 0 concatenate[0][0] __________________________________________________________________________________________________ conv2d_96 (Conv2D) (None, 75, 75, 32) 7200 concatenate[0][0] __________________________________________________________________________________________________ conv2d_99 (Conv2D) (None, 75, 75, 32) 7200 concatenate[0][0] __________________________________________________________________________________________________ conv2d_107 (Conv2D) (None, 75, 75, 64) 36928 batch_normalization_106[0][0] __________________________________________________________________________________________________ conv2d_93 (Conv2D) (None, 37, 37, 32) 7200 max_pooling2d_13[0][0] __________________________________________________________________________________________________ batch_normalization_96 (BatchNo (None, 75, 75, 32) 128 conv2d_96[0][0] __________________________________________________________________________________________________ batch_normalization_99 (BatchNo (None, 75, 75, 32) 128 conv2d_99[0][0] __________________________________________________________________________________________________ batch_normalization_107 (BatchN (None, 75, 75, 64) 256 conv2d_107[0][0] __________________________________________________________________________________________________ batch_normalization_93 (BatchNo (None, 37, 37, 32) 128 conv2d_93[0][0] __________________________________________________________________________________________________ conv2d_97 (Conv2D) (None, 75, 75, 32) 9248 batch_normalization_96[0][0] __________________________________________________________________________________________________ conv2d_100 (Conv2D) (None, 75, 75, 32) 9248 batch_normalization_99[0][0] __________________________________________________________________________________________________ conv2d_108 (Conv2D) (None, 75, 75, 64) 36928 batch_normalization_107[0][0] __________________________________________________________________________________________________ conv2d_94 (Conv2D) (None, 37, 37, 32) 9248 batch_normalization_93[0][0] __________________________________________________________________________________________________ batch_normalization_97 (BatchNo (None, 75, 75, 32) 128 conv2d_97[0][0] __________________________________________________________________________________________________ batch_normalization_100 (BatchN (None, 75, 75, 32) 128 conv2d_100[0][0] __________________________________________________________________________________________________ batch_normalization_108 (BatchN (None, 75, 75, 64) 256 conv2d_108[0][0] __________________________________________________________________________________________________ batch_normalization_94 (BatchNo (None, 37, 37, 32) 128 conv2d_94[0][0] __________________________________________________________________________________________________ conv2d_98 (Conv2D) (None, 75, 75, 64) 2112 batch_normalization_97[0][0] __________________________________________________________________________________________________ conv2d_101 (Conv2D) (None, 75, 75, 128) 4224 batch_normalization_100[0][0] __________________________________________________________________________________________________ conv2d_109 (Conv2D) (None, 75, 75, 64) 36928 batch_normalization_108[0][0] __________________________________________________________________________________________________ conv2d_95 (Conv2D) (None, 37, 37, 64) 2112 batch_normalization_94[0][0] __________________________________________________________________________________________________ batch_normalization_98 (BatchNo (None, 75, 75, 64) 256 conv2d_98[0][0] __________________________________________________________________________________________________ batch_normalization_101 (BatchN (None, 75, 75, 128) 512 conv2d_101[0][0] __________________________________________________________________________________________________ batch_normalization_109 (BatchN (None, 75, 75, 64) 256 conv2d_109[0][0] __________________________________________________________________________________________________ batch_normalization_95 (BatchNo (None, 37, 37, 64) 256 conv2d_95[0][0] __________________________________________________________________________________________________ max_pooling2d_14 (MaxPooling2D) (None, 37, 37, 64) 0 batch_normalization_98[0][0] __________________________________________________________________________________________________ max_pooling2d_15 (MaxPooling2D) (None, 37, 37, 128) 0 batch_normalization_101[0][0] __________________________________________________________________________________________________ max_pooling2d_16 (MaxPooling2D) (None, 37, 37, 64) 0 batch_normalization_109[0][0] __________________________________________________________________________________________________ concatenate_1 (Concatenate) (None, 37, 37, 320) 0 batch_normalization_95[0][0] max_pooling2d_14[0][0] max_pooling2d_15[0][0] max_pooling2d_16[0][0] __________________________________________________________________________________________________ conv2d_110 (Conv2D) (None, 37, 37, 32) 92192 concatenate_1[0][0] __________________________________________________________________________________________________ batch_normalization_110 (BatchN (None, 37, 37, 32) 128 conv2d_110[0][0] __________________________________________________________________________________________________ conv2d_111 (Conv2D) (None, 37, 37, 32) 9248 batch_normalization_110[0][0] __________________________________________________________________________________________________ batch_normalization_111 (BatchN (None, 37, 37, 32) 128 conv2d_111[0][0] __________________________________________________________________________________________________ conv2d_112 (Conv2D) (None, 37, 37, 32) 9248 batch_normalization_111[0][0] __________________________________________________________________________________________________ batch_normalization_112 (BatchN (None, 37, 37, 32) 128 conv2d_112[0][0] __________________________________________________________________________________________________ conv2d_113 (Conv2D) (None, 37, 37, 32) 9248 batch_normalization_112[0][0] __________________________________________________________________________________________________ conv2d_117 (Conv2D) (None, 37, 37, 32) 92192 concatenate_1[0][0] __________________________________________________________________________________________________ batch_normalization_113 (BatchN (None, 37, 37, 32) 128 conv2d_113[0][0] __________________________________________________________________________________________________ batch_normalization_117 (BatchN (None, 37, 37, 32) 128 conv2d_117[0][0] __________________________________________________________________________________________________ conv2d_114 (Conv2D) (None, 37, 37, 64) 18496 batch_normalization_113[0][0] __________________________________________________________________________________________________ conv2d_118 (Conv2D) (None, 37, 37, 32) 9248 batch_normalization_117[0][0] __________________________________________________________________________________________________ batch_normalization_114 (BatchN (None, 37, 37, 64) 256 conv2d_114[0][0] __________________________________________________________________________________________________ batch_normalization_118 (BatchN (None, 37, 37, 32) 128 conv2d_118[0][0] __________________________________________________________________________________________________ conv2d_115 (Conv2D) (None, 37, 37, 64) 36928 batch_normalization_114[0][0] __________________________________________________________________________________________________ conv2d_119 (Conv2D) (None, 37, 37, 64) 18496 batch_normalization_118[0][0] __________________________________________________________________________________________________ batch_normalization_115 (BatchN (None, 37, 37, 64) 256 conv2d_115[0][0] __________________________________________________________________________________________________ batch_normalization_119 (BatchN (None, 37, 37, 64) 256 conv2d_119[0][0] __________________________________________________________________________________________________ conv2d_116 (Conv2D) (None, 37, 37, 64) 36928 batch_normalization_115[0][0] __________________________________________________________________________________________________ conv2d_120 (Conv2D) (None, 37, 37, 64) 36928 batch_normalization_119[0][0] __________________________________________________________________________________________________ batch_normalization_116 (BatchN (None, 37, 37, 64) 256 conv2d_116[0][0] __________________________________________________________________________________________________ batch_normalization_120 (BatchN (None, 37, 37, 64) 256 conv2d_120[0][0] __________________________________________________________________________________________________ max_pooling2d_17 (MaxPooling2D) (None, 18, 18, 64) 0 batch_normalization_116[0][0] __________________________________________________________________________________________________ max_pooling2d_18 (MaxPooling2D) (None, 18, 18, 64) 0 batch_normalization_120[0][0] __________________________________________________________________________________________________ concatenate_2 (Concatenate) (None, 18, 18, 128) 0 max_pooling2d_17[0][0] max_pooling2d_18[0][0] __________________________________________________________________________________________________ global_average_pooling2d_2 (Glo (None, 128) 0 concatenate_2[0][0] __________________________________________________________________________________________________ dropout_2 (Dropout) (None, 128) 0 global_average_pooling2d_2[0][0] __________________________________________________________________________________________________ dense_2 (Dense) (None, 6) 774 dropout_2[0][0] ================================================================================================== Total params: 882,886 Trainable params: 878,150 Non-trainable params: 4,736  3.1.4. MODEL 4: # ------------------------MODEL 4------------------------------- visible = Input(shape=(150, 150, 3)) y = Conv2D_block(visible, number_of_layers= 1, filters= 32, kernel_size= 7) y = Conv2D_bl
…
ers= 128, kernel_size= 3) y = Conv2D_block(y, number_of_layers= 3, filters= 256, kernel_size= 3) y = GlobalAveragePooling2D()(y) y = Dropout(0.5)(y) output = Dense(6, activation='softmax')(y) model_4 = Model(inputs=visible, outputs=output)  3.1.4.1. Model 4 summary Model: \u0026quot;model_4\u0026quot; _________________________________________________________________ Layer (type) Output Shape Param # ================================================================= input_4 (InputLayer) [(None, 150, 150, 3)] 0 _________________________________________________________________ conv2d_121 (Conv2D) (None, 150, 150, 32) 4736 _________________________________________________________________ batch_normalization_121 (Bat (None, 150, 150, 32) 128 _________________________________________________________________ conv2d_122 (Conv2D) (None, 150, 150, 32) 9248 _________________________________________________________________ batch_normalization_122 (Bat (None, 150, 150, 32) 128 _________________________________________________________________ conv2d_123 (Conv2D) (None, 150, 150, 32) 9248 _________________________________________________________________ batch_normalization_123 (Bat (None, 150, 150, 32) 128 _________________________________________________________________ max_pooling2d_19 (MaxPooling (None, 75, 75, 32) 0 _________________________________________________________________ conv2d_124 (Conv2D) (None, 75, 75, 32) 9248 _________________________________________________________________ batch_normalization_124 (Bat (None, 75, 75, 32) 128 _________________________________________________________________ conv2d_125 (Conv2D) (None, 75, 75, 32) 9248 _________________________________________________________________ batch_normalization_125 (Bat (None, 75, 75, 32) 128 _________________________________________________________________ conv2d_126 (Conv2D) (None, 75, 75, 32) 9248 _________________________________________________________________ batch_normalization_126 (Bat (None, 75, 75, 32) 128 _________________________________________________________________ conv2d_127 (Conv2D) (None, 75, 75, 32) 9248 _________________________________________________________________ batch_normalization_127 (Bat (None, 75, 75, 32) 128 _________________________________________________________________ conv2d_128 (Conv2D) (None, 75, 75, 32) 9248 _________________________________________________________________ batch_normalization_128 (Bat (None, 75, 75, 32) 128 _________________________________________________________________ max_pooling2d_20 (MaxPooling (None, 37, 37, 32) 0 _________________________________________________________________ conv2d_129 (Conv2D) (None, 37, 37, 32) 1056 _________________________________________________________________ batch_normalization_129 (Bat (None, 37, 37, 32) 128 _________________________________________________________________ conv2d_130 (Conv2D) (None, 37, 37, 32) 9248 _________________________________________________________________ batch_normalization_130 (Bat (None, 37, 37, 32) 128 _________________________________________________________________ conv2d_131 (Conv2D) (None, 37, 37, 64) 2112 _________________________________________________________________ batch_normalization_131 (Bat (None, 37, 37, 64) 256 _________________________________________________________________ conv2d_132 (Conv2D) (None, 37, 37, 64) 36928 _________________________________________________________________ batch_normalization_132 (Bat (None, 37, 37, 64) 256 _________________________________________________________________ conv2d_133 (Conv2D) (None, 37, 37, 64) 36928 _________________________________________________________________ batch_normalization_133 (Bat (None, 37, 37, 64) 256 _________________________________________________________________ conv2d_134 (Conv2D) (None, 37, 37, 64) 36928 _________________________________________________________________ batch_normalization_134 (Bat (None, 37, 37, 64) 256 _________________________________________________________________ max_pooling2d_21 (MaxPooling (None, 18, 18, 64) 0 _________________________________________________________________ conv2d_135 (Conv2D) (None, 18, 18, 64) 36928 _________________________________________________________________ batch_normalization_135 (Bat (None, 18, 18, 64) 256 _________________________________________________________________ conv2d_136 (Conv2D) (None, 18, 18, 64) 36928 _________________________________________________________________ batch_normalization_136 (Bat (None, 18, 18, 64) 256 _________________________________________________________________ conv2d_137 (Conv2D) (None, 18, 18, 64) 36928 _________________________________________________________________ batch_normalization_137 (Bat (None, 18, 18, 64) 256 _________________________________________________________________ conv2d_138 (Conv2D) (None, 18, 18, 64) 36928 _________________________________________________________________ batch_normalization_138 (Bat (None, 18, 18, 64) 256 _________________________________________________________________ conv2d_139 (Conv2D) (None, 18, 18, 64) 36928 _________________________________________________________________ batch_normalization_139 (Bat (None, 18, 18, 64) 256 _________________________________________________________________ conv2d_140 (Conv2D) (None, 18, 18, 64) 36928 _________________________________________________________________ batch_normalization_140 (Bat (None, 18, 18, 64) 256 _________________________________________________________________ conv2d_141 (Conv2D) (None, 18, 18, 64) 36928 _________________________________________________________________ batch_normalization_141 (Bat (None, 18, 18, 64) 256 _________________________________________________________________ conv2d_142 (Conv2D) (None, 18, 18, 64) 36928 _________________________________________________________________ batch_normalization_142 (Bat (None, 18, 18, 64) 256 _________________________________________________________________ conv2d_143 (Conv2D) (None, 18, 18, 128) 73856 _________________________________________________________________ batch_normalization_143 (Bat (None, 18, 18, 128) 512 _________________________________________________________________ conv2d_144 (Conv2D) (None, 18, 18, 128) 147584 _________________________________________________________________ batch_normalization_144 (Bat (None, 18, 18, 128) 512 _________________________________________________________________ conv2d_145 (Conv2D) (None, 18, 18, 128) 147584 _________________________________________________________________ batch_normalization_145 (Bat (None, 18, 18, 128) 512 _________________________________________________________________ max_pooling2d_22 (MaxPooling (None, 9, 9, 128) 0 _________________________________________________________________ conv2d_146 (Conv2D) (None, 9, 9, 128) 147584 _________________________________________________________________ batch_normalization_146 (Bat (None, 9, 9, 128) 512 _________________________________________________________________ conv2d_147 (Conv2D) (None, 9, 9, 128) 147584 _________________________________________________________________ batch_normalization_147 (Bat (None, 9, 9, 128) 512 _________________________________________________________________ conv2d_148 (Conv2D) (None, 9, 9, 128) 147584 _________________________________________________________________ batch_normalization_148 (Bat (None, 9, 9, 128) 512 _________________________________________________________________ conv2d_149 (Conv2D) (None, 9, 9, 256) 295168 _________________________________________________________________ batch_normalization_149 (Bat (None, 9, 9, 256) 1024 _________________________________________________________________ conv2d_150 (Conv2D) (None, 9, 9, 256) 590080 _________________________________________________________________ batch_normalization_150 (Bat (None, 9, 9, 256) 1024 _________________________________________________________________ conv2d_151 (Conv2D) (None, 9, 9, 256) 590080 _________________________________________________________________ batch_normalization_151 (Bat (None, 9, 9, 256) 1024 _________________________________________________________________ global_average_pooling2d_3 ( (None, 256) 0 _________________________________________________________________ dropout_3 (Dropout) (None, 256) 0 _________________________________________________________________ dense_3 (Dense) (None, 6) 1542 ================================================================= Total params: 2,787,238 Trainable params: 2,781,990 Non-trainable params: 5,248  3.1.5. MODEL 5: # ------------------------MODEL 5------------------------------- visible = Input(shape=(150, 150, 3)) y1 = Conv2D_block(visible, number_of_layers= 1, filters= 32, kernel_size= 5) y1 = Conv2D_block(y1, number_of_layers= 1, filters= 32, k
…
onv2D_block(y7, number_of_layers= 2, filters= 64, kernel_size= 3) y9 = MaxPooling2D(pool_size= 2)(y9) y = concatenate([y8, y9]) y = GlobalAveragePooling2D()(y) y = Dropout(0.5)(y) output = Dense(6, activation='softmax')(y) model_5 = Model(inputs=visible, outputs=output)  3.1.5.1 Model 5 summary Model: \u0026quot;model_5\u0026quot; __________________________________________________________________________________________________ Layer (type) Output Shape Param # Connected to ================================================================================================== input_5 (InputLayer) [(None, 150, 150, 3) 0 __________________________________________________________________________________________________ conv2d_157 (Conv2D) (None, 150, 150, 32) 2432 input_5[0][0] __________________________________________________________________________________________________ batch_normalization_157 (BatchN (None, 150, 150, 32) 128 conv2d_157[0][0] __________________________________________________________________________________________________ conv2d_158 (Conv2D) (None, 150, 150, 32) 1056 batch_normalization_157[0][0] __________________________________________________________________________________________________ batch_normalization_158 (BatchN (None, 150, 150, 32) 128 conv2d_158[0][0] __________________________________________________________________________________________________ conv2d_152 (Conv2D) (None, 150, 150, 32) 2432 input_5[0][0] __________________________________________________________________________________________________ conv2d_159 (Conv2D) (None, 150, 150, 32) 9248 batch_normalization_158[0][0] __________________________________________________________________________________________________ batch_normalization_152 (BatchN (None, 150, 150, 32) 128 conv2d_152[0][0] __________________________________________________________________________________________________ batch_normalization_159 (BatchN (None, 150, 150, 32) 128 conv2d_159[0][0] __________________________________________________________________________________________________ conv2d_153 (Conv2D) (None, 150, 150, 32) 9248 batch_normalization_152[0][0] __________________________________________________________________________________________________ conv2d_160 (Conv2D) (None, 150, 150, 32) 9248 batch_normalization_159[0][0] __________________________________________________________________________________________________ conv2d_164 (Conv2D) (None, 150, 150, 32) 128 input_5[0][0] __________________________________________________________________________________________________ batch_normalization_153 (BatchN (None, 150, 150, 32) 128 conv2d_153[0][0] __________________________________________________________________________________________________ batch_normalization_160 (BatchN (None, 150, 150, 32) 128 conv2d_160[0][0] __________________________________________________________________________________________________ batch_normalization_164 (BatchN (None, 150, 150, 32) 128 conv2d_164[0][0] __________________________________________________________________________________________________ conv2d_154 (Conv2D) (None, 150, 150, 128 4224 batch_normalization_153[0][0] __________________________________________________________________________________________________ conv2d_161 (Conv2D) (None, 150, 150, 128 4224 batch_normalization_160[0][0] __________________________________________________________________________________________________ conv2d_165 (Conv2D) (None, 150, 150, 32) 9248 batch_normalization_164[0][0] __________________________________________________________________________________________________ batch_normalization_154 (BatchN (None, 150, 150, 128 512 conv2d_154[0][0] __________________________________________________________________________________________________ batch_normalization_161 (BatchN (None, 150, 150, 128 512 conv2d_161[0][0] __________________________________________________________________________________________________ batch_normalization_165 (BatchN (None, 150, 150, 32) 128 conv2d_165[0][0] __________________________________________________________________________________________________ conv2d_155 (Conv2D) (None, 150, 150, 128 16512 batch_normalization_154[0][0] __________________________________________________________________________________________________ conv2d_162 (Conv2D) (None, 150, 150, 128 16512 batch_normalization_161[0][0] __________________________________________________________________________________________________ conv2d_166 (Conv2D) (None, 150, 150, 64) 2112 batch_normalization_165[0][0] __________________________________________________________________________________________________ batch_normalization_155 (BatchN (None, 150, 150, 128 512 conv2d_155[0][0] __________________________________________________________________________________________________ batch_normalization_162 (BatchN (None, 150, 150, 128 512 conv2d_162[0][0] __________________________________________________________________________________________________ batch_normalization_166 (BatchN (None, 150, 150, 64) 256 conv2d_166[0][0] __________________________________________________________________________________________________ conv2d_156 (Conv2D) (None, 150, 150, 128 16512 batch_normalization_155[0][0] __________________________________________________________________________________________________ conv2d_163 (Conv2D) (None, 150, 150, 128 16512 batch_normalization_162[0][0] __________________________________________________________________________________________________ conv2d_167 (Conv2D) (None, 150, 150, 64) 4160 batch_normalization_166[0][0] __________________________________________________________________________________________________ batch_normalization_156 (BatchN (None, 150, 150, 128 512 conv2d_156[0][0] __________________________________________________________________________________________________ batch_normalization_163 (BatchN (None, 150, 150, 128 512 conv2d_163[0][0] __________________________________________________________________________________________________ batch_normalization_167 (BatchN (None, 150, 150, 64) 256 conv2d_167[0][0] __________________________________________________________________________________________________ max_pooling2d_23 (MaxPooling2D) (None, 75, 75, 128) 0 batch_normalization_156[0][0] __________________________________________________________________________________________________ max_pooling2d_24 (MaxPooling2D) (None, 75, 75, 128) 0 batch_normalization_163[0][0] __________________________________________________________________________________________________ max_pooling2d_25 (MaxPooling2D) (None, 75, 75, 64) 0 batch_normalization_167[0][0] __________________________________________________________________________________________________ concatenate_3 (Concatenate) (None, 75, 75, 320) 0 max_pooling2d_23[0][0] max_pooling2d_24[0][0] max_pooling2d_25[0][0] __________________________________________________________________________________________________ conv2d_168 (Conv2D) (None, 75, 75, 32) 92192 concatenate_3[0][0] __________________________________________________________________________________________________ conv2d_175 (Conv2D) (None, 75, 75, 32) 92192 concatenate_3[0][0] __________________________________________________________________________________________________ batch_normalization_168 (BatchN (None, 75, 75, 32) 128 conv2d_168[0][0] __________________________________________________________________________________________________ batch_normalization_175 (BatchN (None, 75, 75, 32) 128 conv2d_175[0][0] __________________________________________________________________________________________________ conv2d_169 (Conv2D) (None, 75, 75, 32) 9248 batch_normalization_168[0][0] __________________________________________________________________________________________________ conv2d_176 (Conv2D) (None, 75, 75, 32) 9248 batch_normalization_175[0][0] __________________________________________________________________________________________________ batch_normalization_169 (BatchN (None, 75, 75, 32) 128 conv2d_169[0][0] __________________________________________________________________________________________________ batch_normalization_176 (BatchN (None, 75, 75, 32) 128 conv2d_176[0][0] __________________________________________________________________________________________________ conv2d_170 (Conv2D) (None, 75, 75, 32) 9248 batch_normalization_169[0][0] __________________________________________________________________________________________________ conv2d_177 (Conv2D) (None, 75, 75, 32) 9248 batch_normalization_176[0][0] __________________________________________________________________________________________________ batch_normalization_170 (BatchN (None, 75, 75, 32) 128 conv2d_170[0][0] __________________________________________________________________________________________________ batch_normalization_177 (BatchN (None, 75, 75, 32) 128 conv2d_177[0][0] __________________________________________________________________________________________________ conv2d_171 (Conv2D) (None, 75, 75, 32) 9248 batch_normalization_170[0][0] __________________________________________________________________________________________________ conv2d_178 (Conv2D) (None, 75, 75, 64) 18496 batch_normalization_177[0][0] __________________________________________________________________________________________________ batch_normalization_171 (BatchN (None, 75, 75, 32) 128 conv2d_171[0][0] __________________________________________________________________________________________________ batch_normalization_178 (BatchN (None, 75, 75, 64) 256 conv2d_178[0][0] __________________________________________________________________________________________________ max_pooling2d_26 (MaxPooling2D) (None, 37, 37, 32) 0 batch_normalization_171[0][0] __________________________________________________________________________________________________ conv2d_179 (Conv2D) (None, 75, 75, 64) 36928 batch_normalization_178[0][0] __________________________________________________________________________________________________ conv2d_172 (Conv2D) (None, 37, 37, 64) 18496 max_pooling2d_26[0][0] __________________________________________________________________________________________________ batch_normalization_179 (BatchN (None, 75, 75, 64) 256 conv2d_179[0][0] __________________________________________________________________________________________________ batch_normalization_172 (BatchN (None, 37, 37, 64) 256 conv2d_172[0][0] __________________________________________________________________________________________________ max_pooling2d_28 (MaxPooling2D) (None, 37, 37, 64) 0 batch_normalization_179[0][0] __________________________________________________________________________________________________ conv2d_173 (Conv2D) (None, 37, 37, 64) 36928 batch_normalization_172[0][0] __________________________________________________________________________________________________ conv2d_180 (Conv2D) (None, 37, 37, 64) 36928 max_pooling2d_28[0][0] __________________________________________________________________________________________________ batch_normalization_173 (BatchN (None, 37, 37, 64) 256 conv2d_173[0][0] __________________________________________________________________________________________________ batch_normalization_180 (BatchN (None, 37, 37, 64) 256 conv2d_180[0][0] __________________________________________________________________________________________________ conv2d_174 (Conv2D) (None, 37, 37, 64) 36928 batch_normalization_173[0][0] __________________________________________________________________________________________________ conv2d_181 (Conv2D) (None, 37, 37, 64) 36928 batch_normalization_180[0][0] __________________________________________________________________________________________________ batch_normalization_174 (BatchN (None, 37, 37, 64) 256 conv2d_174[0][0] __________________________________________________________________________________________________ batch_normalization_181 (BatchN (None, 37, 37, 64) 256 conv2d_181[0][0] __________________________________________________________________________________________________ max_pooling2d_27 (MaxPooling2D) (None, 18, 18, 64) 0 batch_normalization_174[0][0] __________________________________________________________________________________________________ max_pooling2d_29 (MaxPooling2D) (None, 18, 18, 64) 0 batch_normalization_181[0][0] __________________________________________________________________________________________________ concatenate_4 (Concatenate) (None, 18, 18, 128) 0 max_pooling2d_27[0][0] max_pooling2d_29[0][0] __________________________________________________________________________________________________ max_pooling2d_30 (MaxPooling2D) (None, 9, 9, 128) 0 concatenate_4[0][0] __________________________________________________________________________________________________ conv2d_182 (Conv2D) (None, 9, 9, 32) 36896 max_pooling2d_30[0][0] __________________________________________________________________________________________________ conv2d_184 (Conv2D) (None, 9, 9, 64) 73792 max_pooling2d_30[0][0] __________________________________________________________________________________________________ batch_normalization_182 (BatchN (None, 9, 9, 32) 128 conv2d_182[0][0] __________________________________________________________________________________________________ batch_normalization_184 (BatchN (None, 9, 9, 64) 256 conv2d_184[0][0] __________________________________________________________________________________________________ conv2d_183 (Conv2D) (None, 9, 9, 64) 18496 batch_normalization_182[0][0] __________________________________________________________________________________________________ conv2d_185 (Conv2D) (None, 9, 9, 64) 36928 batch_normalization_184[0][0] __________________________________________________________________________________________________ batch_normalization_183 (BatchN (None, 9, 9, 64) 256 conv2d_183[0][0] __________________________________________________________________________________________________ batch_normalization_185 (BatchN (None, 9, 9, 64) 256 conv2d_185[0][0] __________________________________________________________________________________________________ max_pooling2d_31 (MaxPooling2D) (None, 4, 4, 64) 0 batch_normalization_183[0][0] __________________________________________________________________________________________________ max_pooling2d_32 (MaxPooling2D) (None, 4, 4, 64) 0 batch_normalization_185[0][0] __________________________________________________________________________________________________ concatenate_5 (Concatenate) (None, 4, 4, 128) 0 max_pooling2d_31[0][0] max_pooling2d_32[0][0] __________________________________________________________________________________________________ global_average_pooling2d_4 (Glo (None, 128) 0 concatenate_5[0][0] __________________________________________________________________________________________________ dropout_4 (Dropout) (None, 128) 0 global_average_pooling2d_4[0][0] __________________________________________________________________________________________________ dense_4 (Dense) (None, 6) 774 dropout_4[0][0] ================================================================================================== Total params: 751,142 Trainable params: 747,046 Non-trainable params: 4,096  3.2. Creating objects modelObj_1 = Network(model_1, epochs=100, optimizer=Adam(lr=1e-4)) modelObj_2 = Network(model_2, epochs=100, optimizer=Adam(lr=1e-4)) modelObj_3 = Network(model_3, epochs=100, optimizer
…
